…
    "HEYNOW = utils.deep_learning_generator(train_file_names,40,0,1,MinMax_Alltrainpreds,MinMax_Alltraintargs)"
   ]
  },
  {
   "cell_type": "markdown",
   "metadata": {},
   "source": [
    "# Create a simple model in KERAS"
   ]
  },
  {
   "cell_type": "code",
   "execution_count": 149,
   "metadata": {},
   "outputs": [
    {
     "name": "stdout",
     "output_type": "stream",
     "text": [
      "_________________________________________________________________\n",
      "Layer (type)                 Output Shape              Param #   \n",
      "=================================================================\n",
      "input_9 (InputLayer)         (None, 155, 92, 2)        0         \n",
      "_________________________________________________________________\n",
      "conv2d_25 (Conv2D)           (None, 155, 92, 8)        408       \n",
      "_________________________________________________________________\n",
      "activation_32 (Activation)   (None, 155, 92, 8)        0         \n",
      "_________________________________________________________________\n",
      "average_pooling2d_25 (Averag (None, 77, 46, 8)         0         \n",
      "_________________________________________________________________\n",
      "conv2d_26 (Conv2D)           (None, 77, 46, 16)        3216      \n",
      "_________________________________________________________________\n",
      "activation_33 (Activation)   (None, 77, 46, 16)        0         \n",
      "_________________________________________________________________\n",
      "average_pooling2d_26 (Averag (None, 38, 23, 16)        0         \n",
      "_________________________________________________________________\n",
      "conv2d_27 (Conv2D)           (None, 38, 23, 32)        12832     \n",
      "_________________________________________________________________\n",
      "activation_34 (Activation)   (None, 38, 23, 32)        0         \n",
      "_________________________________________________________________\n",
      "average_pooling2d_27 (Averag (None, 19, 11, 32)        0         \n",
      "_________________________________________________________________\n",
      "flatten_9 (Flatten)          (None, 6688)              0         \n",
      "_________________________________________________________________\n",
      "dense_9 (Dense)              (None, 1918)              12829502  \n",
      "_________________________________________________________________\n",
      "activation_35 (Activation)   (None, 1918)              0         \n",
      "=================================================================\n",
      "Total params: 12,845,958\n",
      "Trainable params: 12,845,958\n",
      "Non-trainable params: 0\n",
      "_________________________________________________________________\n"
     ]
    }
   ],
   "source": [
    "num_conv_filters = 8\n",
    "filter_width = 5\n",
    "conv_activation = \"relu\"\n",
…
    "## NOW WE WILL BUILD OUR KERAS MODEL\n",
    "\n",
    "this can be done by using the functional API, the context is given below. It is very straight forward to add layers. "
   ]
  },
  {
   "cell_type": "code",
   "execution_count": 38,
   "metadata": {},
   "outputs": [
    {
     "name": "stdout",
     "output_type": "stream",
     "text": [
      "_________________________________________________________________\n",
      "Layer (type)                 Output Shape              Param #   \n",
      "=================================================================\n",
      "input_5 (InputLayer)         (None, 11470)             0         \n",
      "_________________________________________________________________\n",
      "Hidden1 (Dense)              (None, 40)                458840    \n",
      "_________________________________________________________________\n",
      "Hidden2 (Dense)              (None, 30)                1230      \n",
      "_________________________________________________________________\n",
      "Batch_Norm_1 (BatchNormaliza (None, 30)                120       \n",
      "_________________________________________________________________\n",
      "Hidden3 (Dense)              (None, 30)                930       \n",
      "_________________________________________________________________\n",
      "Batch_Norm_2 (BatchNormaliza (None, 30)                120       \n",
      "_________________________________________________________________\n",
      "dropout_5 (Dropout)          (None, 30)                0         \n",
      "_________________________________________________________________\n",
      "Hidden_4 (Dense)             (None, 50)                1550      \n",
      "_________________________________________________________________\n",
      "Batch_Norm_3 (BatchNormaliza (None, 50)                200       \n",
      "_________________________________________________________________\n",
      "output (Dense)               (None, 1783)              90933     \n",
      "=================================================================\n",
      "Total params: 553,923\n",
      "Trainable params: 553,703\n",
      "Non-trainable params: 220\n",
      "_________________________________________________________________\n"
     ]
    }
   ],
   "source": [
    "## Build the Keras Layers: \n",
    "batch_size = 60\n",
    "\n",
    "visible = Input(shape=(wIN_test.shape[1],))      # input \n",
…
